models/v1/policy_v1_seed123_best.pt (torch, 175049 bytes, 6 tensors)

net.0.weight f4 [128, 24]
0	0xbd7f3248	-0.06230381
1	0x3d16e7ef	0.036842283
2	0xbd613b7c	-0.05498837
3	0x3dd27afb	0.10277363
4	0xbe194558	-0.14967859
5	0x3e2df7a5	0.16989
6	0xbdf3a44c	-0.118965715
7	0xbdecd92f	-0.11564862
8	0xbdd3311c	-0.10312101
9	0x3df019d6	0.11723678
10	0xbd894746	-0.067030475
11	0x3dba298a	0.09089954
12	0xbe1aa668	-0.15102541
13	0xbde074a7	-0.1095975
14	0xbd8dc432	-0.06922187
15	0xbd2adf27	-0.04171672
16	0xbe1540e6	-0.14575538
17	0x3e17f637	0.14840017
18	0xbd206278	-0.039156407
19	0x3d94f81d	0.07273886
20	0x3e3cfaf0	0.184551
21	0x3d487913	0.04894359
22	0x3d824e4d	0.06362591
23	0x3e6bcb1c	0.23026699
24	0xbd569e85	-0.05239727
25	0x3dddd337	0.10831302
26	0xbd1d1a00	-0.038354874
27	0x3e44fd31	0.1923721
28	0x3e4edef8	0.20202243
29	0xbe17aee8	-0.14812815
30	0x3e5df63f	0.21675967
31	0x3e19d784	0.15023619
32	0x3e0af6ee	0.13570759
33	0x3dfab494	0.12241474
34	0x3e39dcf5	0.18150695
35	0xbc73a75f	-0.014871447
36	0xbe169f3a	-0.14709178
37	0xbd0a74cf	-0.033802804
38	0xbe07191d	-0.13193174
39	0x3ccee782	0.025256876
40	0xbcb4b1f1	-0.022057505
41	0xbdb6d3ff	-0.08927154
42	0x3c04efe0	0.008113831
43	0x3e52d3b9	0.20588578
44	0x3d1c09a2	0.038095124
45	0x3cac49bd	0.021031255
46	0xbca4b5da	-0.020106245
47	0x3da609b4	0.081073195
48	0x3e1be292	0.15223148
49	0x3da966a3	0.082715295
50	0x3cce07a4	0.025150128
51	0x3c68cffc	0.014209744
52	0x3c35e6ed	0.01110242
53	0x3d4a1f37	0.049346175
54	0xbd8d160d	-0.068889715
55	0xbe723c12	-0.23655728
56	0xbe208d37	-0.15678869
57	0x3e09d084	0.13458449
58	0x3aaa099f	0.0012972838
59	0xbe3536b7	-0.17696653
60	0xbb310bf9	-0.0027015193
61	0x3e15a917	0.14615284
62	0xbe5e1807	-0.21688853
63	0xbe1aa561	-0.1510215
64	0xbdcbd6f5	-0.09953109
65	0xbcb2a84e	-0.02180877
66	0xbd9ed7a2	-0.077559724
67	0xbd416da7	-0.047223713
68	0xbe7b26ff	-0.24526595
69	0x3d95758b	0.0729781
70	0x3e2c9307	0.16852961
71	0x3da82d4a	0.08211763
72	0xbdd68ee6	-0.104764745
73	0xbdf3a0a4	-0.11895874
74	0x3e0c3202	0.13690951
75	0x3d21ebdd	0.039531577
76	0x3e054939	0.13016213
77	0xbe21206c	-0.15735024
78	0x3d03a3fc	0.03213881
79	0x3e48cd9d	0.19609685
80	0x3e0586cb	0.130397
81	0x3d5c495a	0.05378089
82	0x3d470021	0.048584107
83	0xbc621619	-0.013799214
84	0xbda99601	-0.08280564
85	0xbd7fd709	-0.062460933
86	0xbdf57a46	-0.119862124
87	0x3e41d714	0.18929702
88	0x3e024848	0.12722886
89	0x3dcf1a99	0.10112495
90	0xbe10882b	-0.14114444
91	0x3e300e7f	0.1719303
92	0x3df75744	0.120771915
93	0x3e1f011b	0.15527765
94	0xbd961acf	-0.07329332
95	0x3dbca5e5	0.09211329
96	0x3e732605	0.23744972
97	0x3e3357f0	0.17514014
98	0x3e6453a3	0.2229753
99	0x3a760bee	0.0009385933
100	0x3e409095	0.18805154
101	0xbdf9d9d0	-0.121997476
102	0x3d6c9b5b	0.057765346
103	0xbd626661	-0.055273417
104	0xbb9bdf12	-0.0047568167
105	0xbca89b34	-0.02058182
106	0x3cf5a9f9	0.029988276
107	0x3e4a09f4	0.1973036
108	0x3e03369f	0.12813805
109	0x3c8dc47e	0.017305609
110	0x3e1dc6af	0.15407823
111	0xbdbf8964	-0.09352377
112	0x3df8a1d6	0.12140243
113	0x3c52f6cb	0.012876223
114	0xbc49eb3e	-0.0123241525
115	0x3d1cdeb6	0.03829833
116	0xbdc8eca1	-0.098107584
117	0x3d1972e3	0.03746308
118	0x3da5deda	0.08099146
119	0x3e63b873	0.2223833
120	0xbce6334a	-0.028100628
121	0x3dee0970	0.11622894
122	0x3e869f68	0.26293492
123	0xbd52c0ca	-0.05145339
124	0x3e6b8243	0.2299891
125	0xbd84a968	-0.06477624
126	0x3e03b8fa	0.12863532
127	0x3e0e4f1c	0.13897365
128	0x3dbe0ea5	0.09280137
129	0x3e4d8492	0.20070103
130	0xbd8cacf5	-0.068689264
131	0x3d994cf8	0.07485384
132	0x3cb98abe	0.022649165
133	0xbe10943c	-0.14119047
134	0xbd47101f	-0.04859936
135	0xbe01fdec	-0.1269452
136	0x3dc386c4	0.09547189
137	0x3d3cfed8	0.046141475
138	0x3d1769c9	0.03696612
139	0xbd5c89e5	-0.053842444
140	0x3d5e8e3d	0.054334868
141	0xbd62018f	-0.055177268
142	0x3d808c7d	0.06276796
143	0x3e7bd8fb	0.2459449
144	0x3d8ae374	0.067816645
145	0xbd51fbb6	-0.05126544
146	0xbd89e2be	-0.06732701
147	0x3d6e05e1	0.058111075
148	0xbdd6a050	-0.10479796
149	0xbdee16b2	-0.116254225
150	0xbdc10510	-0.09424794
151	0xbc453b4f	-0.012038066
152	0x3d6d7546	0.05797317
153	0x3e40af18	0.18816793
154	0x3dbfe9de	0.093707785
155	0x3e2c58da	0.16830769
156	0xbdc4877a	-0.095961526
157	0x3d4af4eb	0.04954998
158	0xbe276b8f	-0.16349624
159	0x3e0dd437	0.13850485
160	0x3d6ba42a	0.057529606
161	0x3e61e32e	0.22059318
162	0xbdf30f8f	-0.11868202
163	0x3e3ca8ed	0.18423815
164	0x3e672691	0.22573306
165	0x3e3bf775	0.18356116
166	0x3d3dd764	0.04634799
167	0x3e6f94d1	0.23396613
168	0x3de0f3d6	0.10984008
169	0x3dfc8791	0.12330545
170	0xbd7408fd	-0.059578884
171	0xbe443cd1	-0.19163825
172	0xbd2f270d	-0.04276185
173	0x3c2f2c3d	0.0106917
174	0xbe2baa2e	-0.16764137
175	0xbe275685	-0.16341598
176	0xbe6c8b8c	-0.23100108
177	0xbde22541	-0.11042262
178	0x3e28e3c4	0.16493136
179	0x3cd93003	0.026512152
180	0xbd2311af	-0.039811786
181	0xbbe9c9b0	-0.0071346387
182	0x3ddd4cde	0.10805677
183	0xbe48bafb	-0.19602577
184	0xbe2582b8	-0.16163146
185	0xbdd2cf3a	-0.102934316
186	0xbe0bff9e	-0.13671729
187	0x3dbc12ca	0.09183271
188	0x3dc80157	0.097658806
189	0xbe5d9ce1	-0.21641876
190	0xbe404872	-0.18777636
191	0xbe7643e8	-0.24049342
192	0x3d3728fb	0.044716816
193	0x3e07342e	0.13203499
194	0xbe4a0ce4	-0.1973148
195	0xbdfa00d7	-0.122071914
196	0x3d0a048f	0.033695754
197	0xbe2a03ca	-0.16603008
198	0x3e102a80	0.14078712
199	0x3c06721b	0.008205916
200	0xbdac90d5	-0.08426062
201	0xbc92469f	-0.01785594
202	0x3d78dfe6	0.0607604
203	0xbda5b49f	-0.08091091
204	0xbe374f97	-0.17901455
205	0xbcb79275	-0.022408703
206	0xbc194f1f	-0.009357243
207	0xbb67202c	-0.0035266979
208	0xbd16fb8d	-0.03686099
209	0x3dfb44b3	0.12268963
210	0xbd92c0b9	-0.07165665
211	0xbca07293	-0.019585883
212	0x3d3928dc	0.045204982
213	0xbe0c1a4a	-0.13681903
214	0x3d149739	0.03627703
215	0xbda8b31f	-0.0823729
216	0x3df0f646	0.11765723
217	0xbdc80e13	-0.097683094
218	0x3d2f8486	0.042850994
219	0x3d336b80	0.043803692
220	0xbe113b39	-0.14182748
221	0xbe042588	-0.12904942
222	0x3dbdee80	0.09274006
223	0xbcbcc6fc	-0.023044102
224	0x3e1381d4	0.14404994
225	0xbe389c3e	-0.18028352
226	0xbdd5bbb0	-0.10436189
227	0xbe2dcb16	-0.16972002
228	0x3db146c2	0.08656074
229	0xbbbc6a12	-0.0057499493
230	0xbd29c2b2	-0.04144544
231	0xbd0be001	-0.034149174
232	0xbe26b218	-0.16278875
233	0x3d8a1006	0.067413375
234	0x3c304a8b	0.01075996
235	0xbe0dbb76	-0.13841042
236	0x3de7e9fe	0.11323927
237	0xbbb7f1ff	-0.005613565
238	0xbe475d6c	-0.19469231
239	0x3e0a78cf	0.13522647
240	0x3e0ae3b4	0.13563424
241	0xbba3b745	-0.0049962127
242	0xbdb13c10	-0.08654034
243	0x3d360ec1	0.044447664
244	0x3e42850b	0.18996064
245	0x3e5a85c3	0.21340089
246	0xbdf83ebe	-0.12121342
247	0xbd15bb8d	-0.036555815
248	0x3e480935	0.19534762
249	0x3e09b18e	0.13446638
250	0x3e0d44a7	0.1379572
251	0xbdaa07e9	-0.0830229
252	0x3e4f0f1a	0.20220605
253	0xbe1b9afd	-0.15195842
254	0x3a2a7b8d	0.0006503396
255	0x3c3599a7	0.011083997

net.0.bias f4 [128]
0	0x3d87ada5	0.06624917
1	0x3e67aa5d	0.22623582
2	0xbde0d3e0	-0.10977912
3	0xbe122532	-0.14272001
4	0x3df4a5b1	0.11945666
5	0x3e3e2809	0.1856996
6	0xbda1ea4b	-0.07906016
7	0xbe0a6d17	-0.13518177
8	0xbe2709d7	-0.16312347
9	0x3e2a1c18	0.1661228
10	0x3c9aafec	0.018882714
11	0xbe62c6f9	-0.22146215
12	0xbe4c16bc	-0.19930547
13	0xbde278ad	-0.11058173
14	0xbcea631b	-0.02861171
15	0x3e5de53c	0.21669477
16	0xbe7ad869	-0.24496616
17	0x3e38e984	0.18057829
18	0xbcb96136	-0.022629362
19	0xbe5d950a	-0.21638885
20	0xbe4e132e	-0.20124504
21	0xbe2cc395	-0.16871484
22	0xbdaf6052	-0.085632935
23	0x3deba9b8	0.11506981
24	0x3e347f77	0.17626749
25	0xbe3e20b9	-0.1856717
26	0x3e7efcdc	0.24901146
27	0xbe6a4fbf	-0.22881983
28	0xbe10db6c	-0.14146203
29	0xbde888e6	-0.11354236
30	0xbda75cf8	-0.08172029
31	0xbe6d4586	-0.23171052
32	0x3d3bcddc	0.04585062
33	0xbccd0150	-0.02502504
34	0xbe515f2a	-0.20446458
35	0xbd1bcba8	-0.03803602
36	0xbe74ab22	-0.23893407
37	0xbdc5da1a	-0.0966074
38	0x3d3892f9	0.04506204
39	0x3d963044	0.07333425
40	0x3e30f22f	0.17279886
41	0x3d23a055	0.039947826
42	0x3d09b1d6	0.033616863
43	0x3e41db7a	0.1893138
44	0xbe7818c9	-0.24228205
45	0xbc84666d	-0.016162122
46	0x3de189da	0.11012621
47	0xbd3c6080	-0.045990467
48	0x3df082c4	0.117436916
49	0x3def7628	0.116924584
50	0x3dee43b7	0.11634009
51	0x3d27fc38	0.04101202
52	0xbddb42df	-0.10706114
53	0x3d8574d6	0.06516425
54	0x3e36b399	0.17841949
55	0xbe339e2c	-0.17540807
56	0x3e48696d	0.19571467
57	0x3e0d92de	0.13825557
58	0xbdd3f960	-0.10350299
59	0xbe601b00	-0.218853
60	0x3e5a2b24	0.2130552
61	0xbd9b1161	-0.07571674
62	0xbbba35fa	-0.005682704
63	0xbe1232ec	-0.14277238
64	0xbe16d151	-0.14728285
65	0xbe48656f	-0.19569944
66	0xbe41445f	-0.18873738
67	0x3db0b77f	0.08628749
68	0x3e7bcfa0	0.24590921
69	0xbda914d4	-0.08255926
70	0x3e41a367	0.1890999
71	0x3dae0b99	0.08498306
72	0x3e05fa9a	0.13083878
73	0xbe23a876	-0.15982231
74	0xbe201b58	-0.15635431
75	0x3cb0e6f5	0.021594504
76	0x3e29d4e9	0.16585125
77	0xbe2f8629	-0.17141022
78	0x3dfaf3ec	0.12253556
79	0x3e1883d6	0.14894041
80	0x3e743bc9	0.23850931
81	0xbda39329	-0.07987053
82	0xbe738cb8	-0.23784149
83	0x3e63bb13	0.22239332
84	0xbdaa853f	-0.08326196
85	0xbe131cfb	-0.14366524
86	0x3b33d4cc	0.002744007
87	0x3e46e268	0.19422305
88	0xbdbd31c4	-0.09238008
89	0xbdc8620a	-0.097843245
90	0xbe10501e	-0.14093062
91	0xbe1d1601	-0.15340425
92	0xbe747f4e	-0.23876688
93	0xbe23f51e	-0.16011474
94	0x3db7aadd	0.089681365
95	0x3e17e586	0.1483365
96	0x3e1b4c29	0.15165772
97	0xbe4516db	-0.19247
98	0xbe421dac	-0.18956631
99	0x3dd07563	0.1017864
100	0x3e55252b	0.2081496
101	0xbe68a691	-0.2271979
102	0x3d678466	0.05652275
103	0x3d242277	0.04007193
104	0x3e536ced	0.2064702
105	0xbd7ef7d1	-0.062248055
106	0xbcb6b32c	-0.022302233
107	0xbbcd2414	-0.0062604044
108	0x3e34f7ef	0.17672704
109	0xbe6cd91f	-0.231297
110	0xbd8e3526	-0.06943731
111	0xbdc3fe3f	-0.09569978
112	0xbc8f1a60	-0.017468631
113	0x3e669bbd	0.22520347
114	0x3d5aeace	0.053446583
115	0x3c39b022	0.011333497
116	0xbe147fd5	-0.14501889
117	0x3e1b5461	0.15168907
118	0x3d5c29a5	0.053750653
119	0xbe01bc78	-0.12669551
120	0x3e582393	0.2110732
121	0xbd610a95	-0.054941732
122	0x3e09b627	0.13448392
123	0x3e7d7f8a	0.24755684
124	0x3cccf6ad	0.025019968
125	0xbcbb63ba	-0.022874702
126	0x3e1f89bf	0.1557989
127	0xbd159555	-0.036519367

net.2.weight f4 [128, 128]
0	0xbd065f6a	-0.032805838
1	0x3d5978fe	0.053093903
2	0xbdd9ea2c	-0.10640368
3	0x3dd2cb92	0.10292734
4	0xbcae8ead	-0.021308267
5	0x3dd18645	0.10230688
6	0xbcaa4552	-0.020785008
7	0xbdc246ee	-0.09486185
8	0xbc9efbee	-0.019407239
9	0xbd3d5ddb	-0.046232086
10	0x3d12952c	0.035786793
11	0xbddbc45e	-0.107308134
12	0xbd5944ee	-0.053044252
13	0xbb0eac49	-0.002177017
14	0xbda9cf7c	-0.08291528
15	0xbc6e8ced	-0.0145599665
16	0x3d2d2151	0.0422681
17	0x3c5b19b6	0.013372829
18	0x3d2aa71d	0.041663278
19	0xbdba9b34	-0.09111634
20	0xbdd9e94e	-0.106402025
21	0xbdb73c9d	-0.08947108
22	0x3c4e3685	0.012586241
23	0x3dbca796	0.09211652
24	0x3d696678	0.056982487
25	0xbd430f23	-0.047621857
26	0x3ca4539d	0.020059401
27	0x3d0684d3	0.032841515
28	0x3d205d62	0.039151557
29	0xbdb577cc	-0.0886074
30	0xbda2eaa4	-0.079549104
31	0xbdad2dd4	-0.08456007
32	0x3cf16df0	0.029471368
33	0x3d2b4717	0.041815843
34	0xbd6fb098	-0.058518022
35	0x3da37f09	0.079832144
36	0xbd85c7db	-0.0653226
37	0xbc7a3962	-0.01527247
38	0x3d891a9f	0.06694531
39	0xbb039652	-0.0020078612
40	0x3d7de390	0.0619846
41	0xbcf56694	-0.02995614
42	0xbd15e94e	-0.03659945
43	0x3da961e1	0.08270622
44	0xbda27eca	-0.07934339
45	0xbd199021	-0.037490968
46	0x3dc9586b	0.098313175
47	0x3d5d07a6	0.053962372
48	0x3d841f8c	0.064513296
49	0xbd8ec03b	-0.06970259
50	0xbcb00a43	-0.021489268
51	0xbd0d97be	-0.03456854
52	0x3d65dbb0	0.056117713
53	0x3d38d278	0.045122594
54	0x3da886bc	0.082288235
55	0x3ce49f69	0.027908044
56	0xbc9a154d	-0.018808985
57	0x3db433eb	0.08798965
58	0xbcb45293	-0.02201203
59	0xbde5c443	-0.112190746
60	0x3d8b7c29	0.06810791
61	0xbdd945f2	-0.10609044
62	0x3bb37d4c	0.005477583
63	0x3c9c38dc	0.019070081
64	0xbb865b91	-0.004100271
65	0xbcb31415	-0.021860162
66	0xbd556122	-0.052094586
67	0x3ddafc40	0.10692644
68	0xbce391da	-0.027779508
69	0xbc516094	-0.012779374
70	0xbd747bec	-0.059688494
71	0xbc0ce5e8	-0.008599736
72	0xbdeb5c7a	-0.11492248
73	0x3cde83bd	0.027162427
74	0x3cb07992	0.021542344
75	0x3d3097fc	0.043113694
76	0xbd4a6dc6	-0.049421094
77	0xbbbd864c	-0.0057838317
78	0xbd0a2f20	-0.03373635
79	0x3d9e68bb	0.077348195
80	0xbd44bbf3	-0.048030805
81	0xbdb91f53	-0.09039178
82	0xbd875357	-0.06607693
83	0x3daf88fb	0.08571049
84	0x3dc93893	0.09825244
85	0xbd9dc0e9	-0.0770281
86	0x3c8a2c38	0.016866788
87	0x3da0e636	0.07856409
88	0x3bdc16e1	0.0067165946
89	0xbcab2329	-0.02089079
90	0xbd5dc767	-0.054145243
91	0x3b8896a0	0.0041683465
92	0x3bcc6cf7	0.0062385756
93	0x3d58ffc0	0.052978277
94	0x3c1b8985	0.009493236
95	0x3ce0d347	0.027444495
96	0xbce87dbf	-0.028380273
97	0x3d44c171	0.048036043
98	0xbdd60694	-0.104504734
99	0x3d9fffb0	0.078124404
100	0xbcdbd5eb	-0.026835402
101	0xbc8e0d52	-0.017340336
102	0x3d201a16	0.039087377
103	0x3d430a9c	0.04761754
104	0xbaec2557	-0.0018016499
105	0xbcf4cace	-0.029881861
106	0xbc28aa34	-0.010294486
107	0x3d59e7d8	0.05319962
108	0xbca47bc6	-0.020078551
109	0xbcdff106	-0.027336609
110	0xbda2281c	-0.079178065
111	0x3d1f136e	0.03883689
112	0xbd1d61a2	-0.038423188
113	0x3c23b799	0.009992504
114	0x3d1ebe32	0.038755603
115	0xbd5bd498	-0.053669542
116	0x3d46ca68	0.048532873
117	0xbd2d85b4	-0.042363837
118	0x3d02f6ef	0.031973775
119	0x3c4527b1	0.012033389
120	0x3d289f6f	0.041167673
121	0xbc4352b9	-0.011921578
122	0x3cc48ba2	0.023992363
123	0x3cd8accd	0.026449585
124	0xbda0f7d4	-0.078597695
125	0xbd2f64c3	-0.042820703
126	0x3d9dce52	0.07705368
127	0x3d5b5183	0.053544533
128	0x3d82381c	0.06358358
129	0xbc8844be	-0.016634341
130	0xbd28e44b	-0.041233342
131	0x3cd0a48e	0.02546909
132	0xbcda9c83	-0.026685959
133	0x3d012ab4	0.031534865
134	0x3cce0b25	0.025151799
135	0xbdbd0095	-0.09228627
136	0x3bc82dac	0.00610896
137	0xbd0acb74	-0.033885434
138	0xbd67af1a	-0.056563474
139	0xbdf2940d	-0.11844645
140	0xbcf8fa93	-0.03039292
141	0xbd853f07	-0.06506162
142	0xbd601d9a	-0.05471573
143	0x3dc75611	0.09733213
144	0x3c9babb4	0.019002773
145	0xbc45c72f	-0.012071415
146	0x3d065dd8	0.03280434
147	0xbdda8b14	-0.10671058
148	0xbdc4ae4b	-0.09603556
149	0xbdf1d88d	-0.11808882
150	0x3d868e4b	0.06570109
151	0xbcf4c7f2	-0.029880498
152	0x3dc738c3	0.09727623
153	0xbd2dc4df	-0.04242408
154	0xbd086a38	-0.033304423
155	0xbd9f00cb	-0.07763823
156	0x3d115ff1	0.035491887
157	0xbd619b24	-0.055079594
158	0xbdb70107	-0.08935743
159	0xbdb4f31d	-0.08835433
160	0x3c6dd8d5	0.014517029
161	0xbde0a244	-0.1096845
162	0xbcdb896f	-0.026798932
163	0x3dda284d	0.10652218
164	0xbc942225	-0.018082688
165	0xbd935c22	-0.07195307
166	0x3d11b456	0.035572372
167	0x39aa8762	0.00032525795
168	0x3cb0d258	0.021584675
169	0x3d36531f	0.044512864
170	0x3d3e83b1	0.04651231
171	0x3d5d5397	0.054034796
172	0x3ce7c23a	0.028290857
173	0x3c955118	0.018227145
174	0x3a7c5423	0.00096255745
175	0x3b66b252	0.0035201502
176	0xbd6475ba	-0.055776335
177	0xbd4c6cb7	-0.049908366
178	0x3d02942f	0.0318796
179	0xbdb247ce	-0.08705102
180	0xbcbe715a	-0.02324741
181	0x3daea1a6	0.08526926
182	0x3d7f6d0f	0.062359866
183	0xbdd09b60	-0.101858854
184	0xbc64de15	-0.013968964
185	0x3d4b1a1c	0.049585447
186	0xbd5a12ac	-0.053240463
187	0xbc74f73f	-0.014951526
188	0x3dcf8d01	0.10134316
189	0xbd9f08b6	-0.07765333
190	0xbde4862d	-0.111584045
191	0x3d23b31a	0.039965726
192	0xbd38c9e0	-0.045114398
193	0x3cf6c7cd	0.03012457
194	0xbdce94c5	-0.10086969
195	0x3d7707f8	0.060310334
196	0x3deb4f21	0.11489702
197	0x3b48fb67	0.0030667426
198	0x3dcd8581	0.100352295
199	0x3c7240c6	0.014785951
200	0xbdfe181b	-0.124069415
201	0xbe062097	-0.1309837
202	0xbdb83050	-0.0899359
203	0xbd155bc3	-0.036464464
204	0xbc56ccc7	-0.013110346
205	0xbd4d88cd	-0.05017929
206	0xbc953928	-0.01821573
207	0x3db0c259	0.08630819
208	0xbd484f9b	-0.048904043
209	0xbdea449c	-0.114388674
210	0x3ca337f1	0.019924136
211	0xbc03357b	-0.008008356
212	0x3d86a536	0.0657448
213	0xbc687596	-0.014188191
214	0xbdf975c5	-0.12180666
215	0x3cbba300	0.022904873
216	0x3ceb203b	0.028701892
217	0xbd0c3ddc	-0.03423868
218	0xbd686421	-0.056736115
219	0xbd95ad10	-0.073084
220	0x3caa8121	0.020813527
221	0xbaa48eb4	-0.0012554736
222	0x3d76e100	0.06027317
223	0x3d4f51ef	0.050615247
224	0x3d795c75	0.06087919
225	0xbc276962	-0.010217996
226	0xbd9da74a	-0.076979235
227	0xbcf374b6	-0.029718738
228	0x3d88ce9f	0.06680035
229	0xbe0032bc	-0.12519354
230	0x3dc9f466	0.098610684
231	0x3d4c39cd	0.04985981
232	0xbc66b313	-0.014080781
233	0x3be66da3	0.0070321127
234	0xbdcdede3	-0.10055139
235	0x3b27d2b0	0.0025607757
236	0x3d0391aa	0.032121338
237	0x3c79b524	0.015240941
238	0x3cd21f8c	0.025649808
239	0xbd5fe8e8	-0.054665476
240	0x3d63c131	0.055604164
241	0xbd33660e	-0.0437985
242	0x3ccd09ff	0.02502918
243	0xbcec068f	-0.028811721
244	0xbccbfafb	-0.02489995
245	0x3d04a3d5	0.032382805
246	0xbd961955	-0.073290505
247	0xbdc6d684	-0.09708884
248	0x3d89739e	0.06711505
249	0xbd03538c	-0.0320621
250	0x3da5b168	0.08090478
251	0xbd27aeec	-0.040938303
252	0xbd4cd52b	-0.05000798
253	0x3dcb7e64	0.099362165
254	0xbc34b487	-0.011029369
255	0xbd2fabcb	-0.042888444

net.2.bias f4 [128]
0	0x3af8b09f	0.0018973536
1	0x3da95ce2	0.08269669
2	0x3db65d3a	0.089045
3	0x3dd7d0b3	0.10537853
4	0x3b02da2c	0.0019966466
5	0x3d034567	0.03204861
6	0x3dcc37bb	0.09971567
7	0x3aa07e58	0.0012244685
8	0xbb9a881c	-0.0047159325
9	0xbbac837c	-0.0052646976
10	0xbc1ca88b	-0.009561668
11	0xbde92c6d	-0.11385427
12	0xbdb1db05	-0.08684353
13	0xbc4c7011	-0.012477891
14	0xbd79da07	-0.060998943
15	0xbbfdf9cb	-0.007750725
16	0xbcdb57f1	-0.026775332
17	0xbccb774b	-0.024837157
18	0x3de8b566	0.11362724
19	0xbd2ecb61	-0.042674426
20	0xbdd237d1	-0.102645524
21	0x3d04d6be	0.032431357
22	0xbd14dade	-0.03634154
23	0xbdad430f	-0.08460056
24	0x3ceb34bf	0.028711675
25	0xbc4edf54	-0.012626488
26	0x3d3cf4ac	0.046131775
27	0x3d9132b8	0.07089752
28	0xbd8da66d	-0.06916509
29	0x3b4b2910	0.0030999817
30	0x3d897c69	0.067131825
31	0x3d8a482f	0.06752049
32	0xbdb374cf	-0.08762514
33	0xbd47fb47	-0.04882362
34	0x3cc2635e	0.023729023
35	0xbd00b93e	-0.03142666
36	0xbd2c3c7c	-0.04204987
37	0x3dba805c	0.09106514
38	0xbd776ce7	-0.06040659
39	0x3cbdf622	0.023188654
40	0x3da9ea9b	0.082967006
41	0xbd8baca9	-0.06820042
42	0x3c88445f	0.016634164
43	0xbd4239ba	-0.047418334
44	0x3cbe0975	0.023197869
45	0x3d8e09a7	0.06935435
46	0xbd019c4e	-0.031643204
47	0xbdd2f8fc	-0.10301396
48	0xbde5827d	-0.11206529
49	0x3dba6347	0.09100967
50	0x3da67b47	0.08128982
51	0xbdbf9277	-0.09354108
52	0x3dd7ed63	0.10543325
53	0xbd402cd0	-0.046917737
54	0x3c650a17	0.013979456
55	0x3a504318	0.0007944568
56	0xbdb1ff8c	-0.0869132
57	0xbdc47ee7	-0.09594517
58	0x3da7d144	0.08194211
59	0x3cfaa8a6	0.030597996
60	0xbb05cee8	-0.0020417515
61	0x3d970f91	0.07376016
62	0xbcc5f944	-0.02416671
63	0xbd5ca784	-0.053870693
64	0x3d6a30e8	0.057175547
65	0xbdd57a60	-0.10423732
66	0x3d3f8001	0.046752933
67	0x3d1349f7	0.03595921
68	0xbcddb18f	-0.027062206
69	0xbd69d042	-0.057083376
70	0xbd6d382e	-0.057914905
71	0xbd3f75dd	-0.046743263
72	0x3da2fa8f	0.079579465
73	0xbd2b35cb	-0.041799348
74	0xb93f98f2	-0.00018272156
75	0x3ba1033b	0.004913715
76	0x3d90e594	0.070750386
77	0xbdc692d6	-0.096959755
78	0x3c9b2c94	0.018942155
79	0xbc82a6d7	-0.015948696
80	0xbd56feb6	-0.052489005
81	0xbcb11edc	-0.02162116
82	0x3d23378d	0.0398479
83	0xbd13caa7	-0.036081936
84	0x3d4b3f04	0.049620643
85	0xbceb8eda	-0.02875464
86	0x3c7969eb	0.015223007
87	0xbd245383	-0.040118705
88	0xbc27dc06	-0.010245329
89	0x3d2b9b8d	0.04189639
90	0x3b5bc714	0.0033535408
91	0xbd67af2b	-0.056563538
92	0x3d4e4263	0.05035628
93	0xbd24ac2c	-0.04020326
94	0xbd4a4cf1	-0.049389783
95	0xbda59bb9	-0.08086342
96	0xbd637bba	-0.055537917
97	0x3d419906	0.047265075
98	0xbd0733d7	-0.033008423
99	0x3d773861	0.0603565
100	0x3cd64717	0.026156945
101	0x3d7567c6	0.05991342
102	0xbdc6181d	-0.09672568
103	0x3d4ceb04	0.050028816
104	0x3d5ec6b3	0.054388713
105	0x3de8f98f	0.113757245
106	0x3dd119be	0.10209988
107	0xbb852af5	-0.004063959
108	0x3bd275e0	0.006422743
109	0xbc970bab	-0.01843818
110	0xbc84b97f	-0.016201733
111	0xbd1aa1e7	-0.03775206
112	0xbb5cd334	-0.0033695223
113	0x3cf8c564	0.03036756
114	0xbd8baff0	-0.06820667
115	0xbc7c6e2a	-0.0154071245
116	0xbbb8e8e9	-0.0056429994
117	0xbd71fdb6	-0.05907985
118	0x3d47c88f	0.048775252
119	0x3d3422c9	0.043978486
120	0xbc37adc2	-0.011210861
121	0x3cbd68f8	0.023121342
122	0xbdc8c7dd	-0.09803746
123	0xbbcb13a0	-0.006197408
124	0xbc96966b	-0.018382272
125	0xbd34df67	-0.044158366
126	0x3dc421f3	0.09576788
127	0xbdcd96c5	-0.10038523

net.4.weight f4 [180, 128]
0	0xbdc38ca5	-0.0954831
1	0xbdc941d7	-0.09827011
2	0x3d5c6025	0.053802628
3	0xbd94a6b7	-0.07258361
4	0x3d068785	0.032844085
5	0xbd6335b4	-0.055471137
6	0x3d5978c5	0.05309369
7	0x3d30ac3e	0.043133013
8	0x3d8a1f4e	0.06744252
9	0xbd44a62d	-0.04801004
10	0xbd4420c0	-0.047882795
11	0x3cd3e566	0.025866222
12	0xbcf574ba	-0.029962886
13	0x3d54e7ad	0.051978756
14	0xbd8e6832	-0.069534674
15	0x3d9a8cd7	0.07546394
16	0x3c04dd21	0.008109362
17	0x3b9a1ee9	0.004703392
18	0xbd74ad3e	-0.05973553
19	0xbd438e8c	-0.047743365
20	0x3dacf1bd	0.084445454
21	0xbd365761	-0.044516925
22	0x3c76641b	0.015038515
23	0x3d36f278	0.04466483
24	0xbdbd4e3f	-0.0924344
25	0xbc902ade	-0.017598566
26	0xbd059ff2	-0.03262324
27	0xbdd46317	-0.103704624
28	0x3d3aa8bf	0.045571085
29	0xba16540d	-0.00057345704
30	0xbd3bf3ee	-0.045886926
31	0xbd45b337	-0.048266616
32	0x3d725738	0.05916521
33	0x3d06fd0d	0.03295617
34	0xbd71752f	-0.058949646
35	0x3d94d45d	0.072670676
36	0x3dc5c486	0.096566245
37	0xbd99212b	-0.074770294
38	0x3d3c355d	0.04594933
39	0x3d30f7a6	0.043204926
40	0xbdc7f9d2	-0.09764446
41	0x3d1804e8	0.037114054
42	0x3cf19c45	0.02949346
43	0xbd9c1cfa	-0.07622714
44	0x3c8ad623	0.016947811
45	0xbd743f77	-0.059630837
46	0xbc8a1ad1	-0.01685849
47	0xbce74177	-0.028229458
48	0xbd344b6c	-0.04401724
49	0xbd4ed67c	-0.050497517
50	0x3b7d41ac	0.003864388
51	0x3dc295ce	0.09501229
52	0xbb808375	-0.003921921
53	0x3c75017f	0.01495397
54	0x3d9a4214	0.07532135
55	0x3c78870e	0.015168918
56	0xbcc51a34	-0.024060346
57	0x3da8b8a8	0.082383454
58	0xbd7bce09	-0.061475787
59	0xbdafa02e	-0.08575474
60	0xbc242e2c	-0.010020774
61	0xbd916b8e	-0.071005926
62	0x3cf76553	0.030199682
63	0xbd7cccf8	-0.06171891
64	0x3d9302dc	0.0717828
65	0x3d46ed75	0.0485663
66	0x3bc4245e	0.0059857806
67	0x3c382673	0.011239636
68	0xbd4642b0	-0.048403442
69	0xbb86cbdb	-0.004113657
70	0xbbbf4495	-0.005837033
71	0x3af3071d	0.0018541549
72	0xbc3547d0	-0.011064485
73	0x3d8e5ee4	0.06951693
74	0x3d8397f1	0.06425465
75	0x3cba5e70	0.02275011
76	0xbcd68eb9	-0.026191102
77	0x3db468e7	0.08809071
78	0xbc27268a	-0.0102020595
79	0x3bb54864	0.0055323113
80	0x3d53f3d4	0.051746204
81	0xbd86c3be	-0.065803036
82	0x3d97b4d2	0.074075356
83	0xbb8378d4	-0.0040122066
84	0xbd34e086	-0.044159435
85	0xbb8c7429	-0.0042863083
86	0xbd0a0620	-0.033697248
87	0xbdb02f91	-0.086028226
88	0x3da8f995	0.08250729
89	0x3cbb5189	0.022866027
90	0xbb255231	-0.0025225992
91	0x3d7e4221	0.062074784
92	0x3d7503fc	0.059818253
93	0xbdc0ebd5	-0.094199814
94	0xbcf7dff3	-0.030258154
95	0x3bc6d604	0.006067993
96	0xbd0d551a	-0.034504987
97	0xbd5f81db	-0.0545672
98	0xbd98476b	-0.07435497
99	0x3d790d3f	0.060803648
100	0x3d46c222	0.048524983
101	0xbdd0a8a8	-0.101884186
102	0x3d81fa00	0.06346512
103	0x3cbc1cdd	0.022962982
104	0xbd0b35aa	-0.033986725
105	0x3d152198	0.03640899
106	0xbdb662c4	-0.08905557
107	0xbc0e03c4	-0.00866789
108	0xbdbeb9ea	-0.09312804
109	0x3d2f4b08	0.042796165
110	0xbdb41777	-0.08793538
111	0xbd8cc76f	-0.068739764
112	0x3d491a56	0.04909738
113	0xbda66c45	-0.081261195
114	0x3c9860a2	0.018600766
115	0x3d83357c	0.06406686
116	0x3d3d9aa4	0.046290055
117	0x3d01a90f	0.031655367
118	0xbd97ed03	-0.07418253
119	0xbd2e3e91	-0.042540137
120	0x3d1a4a73	0.037668657
121	0xbd7671b7	-0.06016704
122	0x3d9e490e	0.07728778
123	0x3cd24e6c	0.02567216
124	0x3dad563b	0.08463713
125	0x3d36a004	0.044586197
126	0x3d2ba7af	0.041907962
127	0xbadb3e6c	-0.0016726977
128	0xbcb27060	-0.0217821
129	0xbc63c2d8	-0.013901435
130	0xbcf8d253	-0.030373728
131	0x3c83545d	0.016031438
132	0x3c9d7cf2	0.019224618
133	0x3da0c7ec	0.07850632
134	0xbcc98b19	-0.02460246
135	0xbbaa8d2a	-0.0052048163
136	0xbc955566	-0.018229198
137	0xbdcf404a	-0.10119684
138	0x3cb54d0f	0.022131471
139	0x3d847a71	0.06468666
140	0x3db8997a	0.09013648
141	0xbcd81e98	-0.026381776
142	0x3dd1a20c	0.10235986
143	0xbd1ffefe	-0.03906154
144	0x3d7881ef	0.06067079
145	0xbd76151a	-0.060078718
146	0xbd28e769	-0.041236315
147	0x3dafd267	0.08585053
148	0xbc121d8f	-0.00891818
149	0xbd0cd19c	-0.034379587
150	0xbdcc850f	-0.099863164
151	0xbd142e15	-0.03617676
152	0xbcdb0996	-0.02673797
153	0x3d2277af	0.03966492
154	0x3aaf0497	0.0013352808
155	0xbda9b0bb	-0.08285662
156	0xbd5bab13	-0.053629946
157	0xbd74f35b	-0.059802394
158	0xbc129d21	-0.008948595
159	0xbd3f0687	-0.046637084
160	0xbceae999	-0.028675841
161	0xbcdec27d	-0.027192349
162	0xbd4a26c8	-0.04935339
163	0x3ca56d9a	0.020193864
164	0x3c955f23	0.018233841
165	0x3cd170f1	0.02556655
166	0x3cefc51b	0.029268792
167	0xbb7c7c97	-0.003852641
168	0xbd9fa1f9	-0.07794566
169	0xbc1de91a	-0.009638095
170	0xbd976a68	-0.07393342
171	0xbd7d06ca	-0.061774053
172	0x3b9be4e6	0.0047575114
173	0xbd3918b4	-0.045189574
174	0x3d24f00c	0.04026799
175	0xbd75de07	-0.060026195
176	0x3d773525	0.060353417
177	0xbd8f7ecd	-0.07006607
178	0xbd297e80	-0.041380405
179	0xbd04f65c	-0.03246151
180	0x3d14767a	0.0362458
181	0xbd643d2e	-0.055722408
182	0x3dbbc16a	0.0916775
183	0x3ce3b488	0.027796045
184	0x3dbf54d4	0.093423516
185	0xbd05c9c8	-0.032663137
186	0x3d6b1df5	0.057401616
187	0xbd6b27fa	-0.05741117
188	0xbd5a2422	-0.053257115
189	0x3cd6f248	0.026238576
190	0xbd13bc44	-0.036068216
191	0xbd42b192	-0.047532625
192	0x3d83c4b0	0.064339995
193	0x3bff2c59	0.007787269
194	0xbcda019f	-0.026612101
195	0x3dca9bc8	0.09892994
196	0x3cb4fd61	0.022093477
197	0xbcd64e1f	-0.026160298
198	0x3d0d22ac	0.034456894
199	0xbd1ec3db	-0.038761
200	0xbd131e5e	-0.035917632
201	0xbd1dde63	-0.038542163
202	0x3c22df90	0.009940997
203	0x3cdfb6ae	0.027308788
204	0xbdad9107	-0.084749274
205	0xbd508db6	-0.050916396
206	0xbcc4fad1	-0.02404538
207	0x3bf526cb	0.007481431
208	0x3cb4f7c8	0.022090808
209	0xbd4a4268	-0.049379736
210	0x3d9439d2	0.07237591
211	0xbcda805b	-0.026672533
212	0xbcefdd7e	-0.02928042
213	0xbd4eb77a	-0.050467946
214	0x3c9b5b8a	0.018964548
215	0x3c467670	0.012113199
216	0xbce9554f	-0.028483061
217	0xbd141de5	-0.036161322
218	0x3d7df76d	0.06200354
219	0x3c0268b7	0.007959536
220	0x3cc57487	0.024103416
221	0xbc43a81d	-0.011941937
222	0xbd77e4ae	-0.06052082
223	0xbbde73e9	-0.00678872
224	0x3d0cac10	0.03434378
225	0xbd8f5f2a	-0.07000573
226	0xbd303747	-0.043021467
227	0xbd67f432	-0.056629367
228	0xbc7c436f	-0.015396937
229	0xbd96091d	-0.07325957
230	0xbc9620bd	-0.018326158
231	0xbd3b96cb	-0.045798104
232	0xbd05397a	-0.032525517
233	0xbd39eb2d	-0.045390297
234	0xbb3b4505	-0.0028575074
235	0x3d812b0f	0.06307041
236	0x3d94d98e	0.07268058
237	0xbd18a8f6	-0.03727051
238	0x3d6c8783	0.05774642
239	0x3dcafcbc	0.099114865
240	0x3d7f3995	0.062310774
241	0xbdae682d	-0.08515964
242	0xbd549734	-0.05190201
243	0xbd8590a0	-0.06521726
244	0xbb9d1d78	-0.0047947727
245	0x3d61c4ee	0.055119447
246	0xbc2d3513	-0.010571736
247	0xbc8f39f5	-0.01748369
248	0x3db38f3b	0.087675534
249	0xbd339d56	-0.04385122
250	0x3dd3bf0b	0.10339173
251	0x3cdd78b2	0.027035091
252	0x3c16a52f	0.009194656
253	0x39777aa8	0.00023601449
254	0xbbea49f7	-0.0071499306
255	0x3d554c23	0.052074563

net.4.bias f4 [180]
0	0x3d93fe71	0.07226265
1	0xbdb2dae8	-0.08733159
2	0xbcc41a16	-0.02393822
3	0xbc191f52	-0.009345846
4	0x3dc971d4	0.09836164
5	0x3d469d2d	0.04848974
6	0x3d710b2d	0.05884855
7	0xbd37c0be	-0.044861548
8	0xbd9c745b	-0.076393805
9	0xbce95e73	-0.02848742
10	0x3d1bd234	0.038042262
11	0x3c9881c9	0.018616574
12	0x3bebba4c	0.007193839
13	0x36e6d75d	6.8796057e-06
14	0x3cd20e9a	0.025641728
15	0x3d657428	0.05601898
16	0xbd4aab91	-0.049480025
17	0x3db0724c	0.086155504
18	0xbd3cdf4d	-0.046111394
19	0x3cb5536d	0.022134507
20	0xbda5992e	-0.08085857
21	0xbd8f8e62	-0.07009579
22	0xbc5ff683	-0.013669613
23	0xbc53d5c7	-0.012929386
24	0xbdb95a49	-0.09050424
25	0x3d0a707b	0.033798676
26	0xbd942ee7	-0.072355084
27	0x3d727869	0.059196863
28	0xbd98ff3f	-0.07470559
29	0xbdacf6e4	-0.08445528
30	0xbd844582	-0.0645857
31	0x3d41d3b9	0.047321055
32	0xbdd30cdf	-0.10305189
33	0x3d1fbac3	0.03899647
34	0x3c122bea	0.008921603
35	0xbdbb6910	-0.091508985
36	0x3d5af792	0.053458758
37	0xbd7b909d	-0.06141721
38	0x3c38d21b	0.011280562
39	0xbd65e68d	-0.056128073
40	0xbbfd7f79	-0.007736143
41	0x3d1bf089	0.03807119
42	0xbda117ea	-0.07865889
43	0xbd49c33e	-0.049258463
44	0xbcb6b933	-0.022305107
45	0x3d185fe1	0.037200812
46	0x3d7c375e	0.06157624
47	0xbd6251cf	-0.0552538
48	0xbd63e138	-0.055634707
49	0x3c28feb7	0.010314635
50	0x3d9d5cc1	0.07683707
51	0x3daed2d0	0.08536303
52	0xbd7377b0	-0.059440315
53	0xbd233569	-0.039845858
54	0x3da56b29	0.0807708
55	0x3d72b17e	0.0592513
56	0xbd3fde7c	-0.046843037
57	0xbd8283d3	-0.063728
58	0x3d49b361	0.049243335
59	0x3b8d78d0	0.0043173805
60	0xbdd8415b	-0.105593406
61	0xbd8be5f8	-0.068309724
62	0x3da250d6	0.079255745
63	0xbc9a610d	-0.018845106
64	0xbc54cf90	-0.01298894
65	0xbd1c1221	-0.038103227
66	0x3d2d3a20	0.04229176
67	0x3d4e1d37	0.05032083
68	0x3c423571	0.011853562
69	0x3d83554a	0.06412752
70	0x3d87d21b	0.06631871
71	0xbdad5e4b	-0.084652506
72	0x3d86a1fe	0.06573866
73	0xbd6cfcc2	-0.057858236
74	0xbbebfba8	-0.0072016306
75	0xbd98b9ae	-0.074572906
76	0xbd92c334	-0.07166138
77	0x3cdc7792	0.026912484
78	0x3d32d51f	0.04366028
79	0x3d144002	0.036193855
80	0x3d2c6f65	0.04209842
81	0x3d6716bd	0.05641817
82	0xbda913cd	-0.0825573
83	0x3de072da	0.10959406
84	0xbdac0ed6	-0.08401267
85	0xbdcbb940	-0.09947443
86	0x3cb3c5bc	0.021944873
87	0x39e217ad	0.0004312372
88	0x3c9f4f57	0.019447012
89	0xbc27d13b	-0.0102427555
90	0x3d327a08	0.04357341
91	0x3d607782	0.05480147
92	0xbd00ff68	-0.031493574
93	0xbdb6adea	-0.0891989
94	0xbcdea5e5	-0.027178714
95	0xbc1f9b32	-0.009741591
96	0xbce75a6b	-0.028241357
97	0x3d2b331b	0.041796785
98	0x3ce3763c	0.02776634
99	0x3c3483cb	0.01101775
100	0xbb754375	-0.003742424
101	0xbdaa350c	-0.08310899
102	0xbdba24be	-0.09089039
103	0x3d0069e1	0.031350974
104	0x3b1e6aa4	0.002417245
105	0xbc2a02f7	-0.010376683
106	0xbd8354b4	-0.0641264
107	0x3cb74b01	0.022374632
108	0x3d960619	0.07325382
109	0x3bbaff4b	0.005706703
110	0xbccd3c10	-0.025053054
111	0xbca77202	-0.020440105
112	0x3cb95bd9	0.022626804
113	0xbcf3c3c4	-0.029756434
114	0xbcde32cb	-0.02712383
115	0x3d1d44e7	0.03839579
116	0x3c41e25c	0.011833753
117	0xbdc31caf	-0.09526955
118	0x3d2a5a11	0.0415898
119	0xbb05c4e5	-0.0020411548
120	0xbc499190	-0.012302771
121	0xbbaebe24	-0.005332725
122	0xbdac21d1	-0.084048875
123	0x3c8ad1f1	0.016945811
124	0xbda1b412	-0.07895674
125	0xbd3aa044	-0.045562997
126	0x3d041e88	0.03225568
127	0xbdc6f45a	-0.09714575
128	0x3c032465	0.008004283
129	0xbd4c1429	-0.049823914
130	0x3a95d0bf	0.0011430009
131	0xbd099439	-0.03358862
132	0xbae2801c	-0.0017280611
133	0xbdb0522c	-0.08609423
134	0x3d6b80bc	0.057495818
135	0xbd0d5b19	-0.034510706
136	0x3be4eec8	0.0069864728
137	0x3cd97edb	0.026549747
138	0x3d7c85f0	0.06165117
139	0x3dcc9f17	0.099912815
140	0xbd3920b8	-0.04519722
141	0xbcdada4b	-0.026715418
142	0x3cb19a18	0.021679923
143	0x3d8ef2a6	0.06979875
144	0x3d2899ee	0.041162424
145	0x3d8f8180	0.07007122
146	0x3d8acd85	0.06777481
147	0xbc9d3b51	-0.019193323
148	0xbda3f514	-0.08005729
149	0x3d643193	0.05571134
150	0x3c1444c2	0.009049596
151	0x3d849d1b	0.06475278
152	0xbc96a38c	-0.018388532
153	0xbda2a06c	-0.07940754
154	0x3d0cc1d7	0.034364548
155	0xbc5c46da	-0.013444627
156	0xbdb2a1c7	-0.08722263
157	0xbdbaac3d	-0.09114883
158	0xbd17423c	-0.0369284
159	0x3d983873	0.07432642
160	0xbd81f5fc	-0.06345746
161	0xbd5a7225	-0.053331513
162	0xbcca691f	-0.024708329
163	0xbd661962	-0.05617655
164	0xbce0648c	-0.027391694
165	0x3d8521da	0.06500597
166	0x3abf62f1	0.001460163
167	0x3d183836	0.037162982
168	0x378bdd60	1.6673177e-05
169	0x3dc305f5	0.095226206
170	0x3d2c55e5	0.042074103
171	0x3d281db7	0.041043963
172	0x3bc6156c	0.006045034
173	0x3db43c7a	0.088005975
174	0xbd1891d1	-0.037248436
175	0x3c102e15	0.008800049
176	0x3d94ebb8	0.07271522
177	0x3da56aef	0.080770366
178	0xbd2466e5	-0.04013719
179	0x3db7cfd3	0.08975186
