models/policy_v1_seed123_best.pt (torch, 129673 bytes, 6 tensors)

net.0.weight f4 [128, 20]
000000 cd 54 e0 bd cc 0b c5 bc e3 38 02 be 24 c2 5d 3d
       -0.109536745 -0.024053477 -0.12717013 0.054140225
000010 94 fb 55 be 32 7e 07 3e a1 c9 36 be 9a 5c 54 be
       -0.2089675 0.13231733 -0.17850353 -0.2073845
000020 86 b7 14 be 41 2e c7 3d ed 49 b1 bd ff 34 a3 3d
       -0.14523134 0.09725619 -0.08656678 0.079690926
000030 74 86 46 be 0a 00 0f be 40 45 b0 bd ce 9d 44 bd
       -0.19387227 -0.13964859 -0.086069584 -0.048002057
000040 ea 62 4f be 9e c9 11 3e 2f de 98 bd 91 6f 3a 3d
       -0.20252576 0.14237067 -0.07464253 0.045516554
000050 3b 44 15 3e 9c 64 7c 3c 72 60 3c 3d 46 78 4e 3e
       0.14576809 0.0154048465 0.045990415 0.20163068
000060 42 5b e3 bd b8 57 37 3d bb 3c ee bd 90 af 10 3e
       -0.111013904 0.04476139 -0.11632677 0.14129472
000070 51 21 39 3e 98 b0 4f be 33 9c 46 3e b7 ff df 3d
       0.18079115 -0.20282209 0.19395523 0.109374456
000080 7c b9 cc 3d 68 c4 bf 3d 2c 37 3f 3e 88 46 df bc
       0.09996316 0.093636334 0.1867339 -0.027255312
000090 02 c6 5f be 5f 2b 7d bd b3 37 2c be 06 4e c9 bb
       -0.21852878 -0.06180894 -0.16818123 -0.0061433343
0000a0 16 af 58 bd 53 7b 2c be d9 be fe bc d5 78 4f 3e
       -0.05290135 -0.1684392 -0.031096863 0.20260938
0000b0 c5 5d e9 bc 9e 29 29 bd 00 b8 3c bd 20 28 d3 3c
       -0.028487096 -0.041299455 -0.046073914 0.025775969
0000c0 08 58 48 3e 4c bf 08 3e 87 86 9a 3d 8e 37 38 3d
       0.19564831 0.13354224 0.0754519 0.044974856
0000d0 76 84 51 3d 04 e0 ab 3d 34 1b fa bc 69 82 56 be
       0.051151715 0.08392337 -0.03053055 -0.20948185
0000e0 52 43 31 be c6 a8 40 3e 94 b2 03 bc ca 8e 52 be
       -0.17310837 0.18814382 -0.008038182 -0.20562282
0000f0 0b 04 0b 3d bc 24 4d 3e 9c 17 54 be 84 74 20 be
       0.033939403 0.20033544 -0.20712131 -0.15669447
000100 9c d0 b8 bd 24 f1 cc 3c 49 e6 46 bd e0 73 ff bc
       -0.09024164 0.025017329 -0.04855946 -0.031183183
000110 e7 b7 5d be d5 99 d9 3d ce 7a 4c 3e 3d 83 0e 3e
       -0.21652184 0.10625044 0.19968721 0.13917251
000120 0c 70 22 be a6 ee 38 be 68 93 b8 3d 25 79 81 3b
       -0.15863055 -0.18059787 0.090124905 0.003951209
000130 ad a4 d0 3d 90 bd 5f be 05 73 3d bc 30 b8 25 3e
       0.101876594 -0.21849656 -0.011563067 0.16183543
000140 9b 9b f7 3d 69 d1 5c 3d 09 21 7f 3d 4a 17 b8 3a
       0.12090226 0.053910647 0.062287364 0.0014045027
000150 a4 c1 d8 bd 05 4e 1e bd a1 4b f1 bd 3b 74 55 3e
       -0.10583809 -0.038648624 -0.11782003 0.2084512
000160 f1 74 fb 3d 65 b5 9c 3d 67 91 2b be 7d 95 31 3e
       0.12278164 0.07651786 -0.16754685 0.17342182
000170 bb 21 8a 3d 9d f6 1b 3e e9 de ba bd 96 55 36 3d
       0.06744715 0.15230794 -0.09124548 0.044515215
000180 9e 7c 83 3e c5 a3 17 3e e4 12 4f 3e dc 13 8c bc
       0.25681013 0.14808567 0.2022205 -0.017099313
000190 fe 90 33 3e 3c d1 2c be 6f b5 b6 3c 00 82 db bd
       0.17535779 -0.16876692 0.022303311 -0.10718155
0001a0 a0 82 43 bd b2 bb 50 bd 35 21 a4 3c 26 fb 63 3e
       -0.047731996 -0.05096025 0.020035366 0.22263774
0001b0 01 8c da 3d aa 79 9e bb a6 9d 1e 3e c7 f1 f2 bd
       0.10671235 -0.004836281 0.15489826 -0.118625216
0001c0 77 8f e3 3d 4a 81 cb bc a9 e6 2f bd e8 dc b4 3c
       0.11111348 -0.024841923 -0.042944584 0.022077993
0001d0 5b 65 28 be a6 19 b2 3c 7e 91 a4 3d 02 cc 48 3e
       -0.16444914 0.021740746 0.08035563 0.19609073
0001e0 94 9a c1 bd 93 12 98 3c 69 b6 4e 3e 06 a0 fd bd
       -0.094533116 0.018563544 0.20186771 -0.12384038
0001f0 0e 88 41 3e 71 53 30 be e1 db 9b 3d 3b 0b 6b 3d
       0.18899557 -0.1721933 0.07610298 0.057383757
000200 d4 fa 80 3d ec b7 38 3e 7b 44 b5 bd ac c5 75 3d
       0.06297842 0.1803891 -0.08850952 0.060002968
000210 f4 df 8c 3b de 2f 2b be a1 4a 57 bd ee fb 15 be
       0.004299158 -0.16717479 -0.052561406 -0.14646885
000220 de 3e 45 3d 7f cd b6 3c 69 67 b9 bb 5e 77 dd bd
       0.048155658 0.022314785 -0.0056580794 -0.10813783
000230 31 c6 91 38 9d 8a ce bd f9 8e 90 3d de 91 65 3e
       6.951055e-05 -0.10085032 0.0705852 0.22418925
000240 44 81 07 3d d3 2e 05 be c5 4b 05 be 8c ed c4 3c
       0.03308226 -0.13006143 -0.13017185 0.024039052
000250 89 30 26 be b3 63 28 be 22 ab 11 be 19 1f 94 bd
       -0.16229452 -0.16444282 -0.14225438 -0.07232494
000260 2c c1 a9 3c a9 f2 21 3e 93 f6 b9 3d 25 b8 33 3e
       0.020721994 0.15815224 0.090802334 0.17550714
000270 f7 39 21 be 74 f9 bb 3c 64 2a 4b be b4 62 f3 3d
       -0.15744768 0.022946097 -0.1984039 0.118840605
000280 c7 1d 3d 3d 14 02 53 3e 0c 2d 27 be 6a 14 42 3e
       0.046170976 0.20606261 -0.16325778 0.189531
000290 fa bf 3f 3e f2 ca 2d 3e 08 63 e6 3c a8 ae 5b 3e
       0.18725577 0.16971949 0.028123394 0.21453345
0002a0 7c 54 1c 3e 43 70 2d 3e 5e a2 47 bc a6 8d 2c be
       0.15266603 0.16937356 -0.012184707 -0.1685091
0002b0 27 24 cb 39 59 60 39 3d 2f 58 18 be 65 e4 ff bd
       0.00038746113 0.0452579 -0.1487739 -0.12494735
0002c0 81 e0 61 be 53 d9 99 bd e5 7c 4b 3e bf 4d 1a 3d
       -0.22058298 -0.075121544 0.19871862 0.0376718
0002d0 eb b2 38 3c d6 e7 8e 3d e0 15 24 3e 8e 50 29 be
       0.011273126 0.06977813 0.1602397 -0.16534635
0002e0 ca 88 17 be 6e 56 62 bc 00 90 db bd 1a ff 1b 3e
       -0.14798275 -0.013814552 -0.10720825 0.15234032
0002f0 fb 74 25 3e 06 70 5a be c5 ce 3e be 27 54 5b be
       0.16157906 -0.21331796 -0.18633564 -0.2141882
000300 1d a8 b4 3d c4 42 3c 3e 4c 64 2d be 38 09 cc bd
       0.088211276 0.18384844 -0.16932791 -0.09962696
000310 fb 5e f8 3d ea a2 11 be 55 ad 5a 3e b6 8d ba 3d
       0.12127491 -0.14222303 0.21355183 0.091090605
000320 1f ce 62 bd 22 12 00 3d bd bd 7a 3d 33 49 b3 bd
       -0.055372354 0.031267293 0.061216105 -0.08754196
000330 fa a0 2b be 7e 62 92 3c b8 55 9e bb 44 a7 80 bb
       -0.16760626 0.01786923 -0.004831996 -0.0039261896
000340 10 18 14 bd a6 28 0f 3e 56 56 86 bd ff 49 ce bc
       -0.03615576 0.1398035 -0.06559436 -0.025181768
000350 fe b4 b3 3d 0e 6d 14 be f1 81 63 3d 16 e0 5b bd
       0.08774756 -0.14494726 0.055543844 -0.053680502
000360 16 87 f0 3d e9 64 00 be 2e fc e0 3b a6 73 d7 3c
       0.117445156 -0.12538494 0.0068659997 0.026300263
000370 9e 08 3c be 7e 05 3e be 34 0c ab 3d 40 fd 83 bd
       -0.18362662 -0.18556783 0.08351937 -0.06444788
000380 75 65 03 3e c2 b0 79 be 54 a1 e6 bd 70 63 3b be
       0.12831672 -0.24383834 -0.1126124 -0.18299651
000390 8b 53 bd 3d af 5b 13 bc c4 b0 1b bd 9f 19 0b bd
       0.0924445 -0.008994027 -0.038010374 -0.03395998
0003a0 7b e2 34 be 5c c9 84 3d fe 08 58 3b 70 20 20 be
       -0.1766452 0.06483719 0.0032964344 -0.15637374
0003b0 da 3c 85 3d e5 1d 6b bb a7 9b 6b be d9 8e e0 3d
       0.06505747 -0.0035875973 -0.23008595 0.10964746
0003c0 3a 75 fa 3d 6a b0 64 bc 2e bf 1b be fc 84 3f 3c
       0.122293904 -0.013958076 -0.15209648 0.011689421
0003d0 a3 01 31 3e 3c d5 6d 3e f3 a4 2a be fb 5e cc bd
       0.1728578 0.23225874 -0.16664486 -0.099790536
0003e0 b1 7e 2e 3e 0a 2d e2 3d f7 a8 09 3e 15 d3 eb bd
       0.17040516 0.11043747 0.13443361 -0.1151487
0003f0 b0 f1 41 3e 10 02 40 be 60 20 59 bc f4 6d e0 3a
       0.18939853 -0.18750787 -0.013252348 0.0017122612

net.0.bias f4 [128]
000000 9f 62 10 3e ae 76 59 be 6b f8 74 be 28 0f 0f 3e
       0.14100121 -0.21236679 -0.23922889 0.13970625
000010 8d 6c 7b 3e 7f 13 b4 3d 56 ac 85 be b3 28 71 be
       0.24553128 0.08792781 -0.26108044 -0.23550682
000020 6b f3 2f be e5 8c 36 bd 5b d0 44 3e 6d a5 38 be
       -0.171827 -0.04456796 0.19220106 -0.18031855
000030 f2 35 bc bd 15 33 4a be d3 6f 3f 3e d7 26 1a 3e
       -0.09189977 -0.19746049 0.18695001 0.15053879
000040 04 ba 40 3e cd c7 57 3e 93 b4 76 3d 16 47 8d bd
       0.1882096 0.21072312 0.060230803 -0.06898324
000050 c0 f3 af bd 49 ba 12 be a3 38 34 3e b4 7b bc 3d
       -0.085914135 -0.14328875 0.1759973 0.09203282
000060 de b5 62 be 9c ec 8b be 54 9c 9b 3d d8 ac 13 3e
       -0.2213969 -0.27328956 0.075981766 0.14421403
000070 01 5b 7c be 0c 42 ef 3d 65 bb b9 3d fb 3c b2 3d
       -0.2464409 0.11682519 0.09068946 0.08703037
000080 fd 2b 32 3b 37 b2 76 be 58 a8 6f 3e b5 0b 9b 3d
       0.0027186864 -0.24091421 0.23404062 0.07570592
000090 a6 35 ca bd a3 eb 83 be 79 19 ee 3c 2b eb 6b bc
       -0.09873514 -0.25765714 0.02906488 -0.01439933
0000a0 76 5f 46 be 89 12 59 3d ee 11 b0 3d 60 5d 03 3d
       -0.19372353 0.052996192 0.0859717 0.03207147
0000b0 bb d2 74 be 2b e5 96 3d 8b f6 15 be 6a a5 b0 3d
       -0.23908512 0.07367929 -0.1464483 0.086253
0000c0 9d e8 31 3e c4 a3 14 3e 3c 71 17 be d9 96 86 3e
       0.17373891 0.14515597 -0.14789289 0.26286963
0000d0 97 08 32 bd 00 86 6c bd 85 c7 5f be 9f 9e 6e 3e
       -0.043465223 -0.05774498 -0.21853454 0.23302697
0000e0 fb aa 8a be f7 c1 8f 3d dc a6 02 3b 2d 4c 5e be
       -0.27083573 0.07019418 0.0019935882 -0.21708746
0000f0 0b 39 3a 3d 0d 12 23 be ad fd 5a 3e 75 dc f2 3d
       0.045464557 -0.15924855 0.21385832 0.11858455
000100 2c 6d 09 3e 98 ad c6 bc 41 77 e9 bd 0e 84 22 3e
       0.13420552 -0.024252698 -0.11399699 0.15870687
000110 22 f0 8a 3d 4d f4 5e be 02 22 55 3c 2a 64 27 3e
       0.06784083 -0.21772881 0.013008596 0.16346803
000120 e4 2d ba bd 66 33 bd bd 38 af 0e 3d cf 1e 20 be
       -0.09090784 -0.09238319 0.03483507 -0.15636753
000130 11 c6 01 3e 53 98 17 3e e1 0a 40 bd 1a ec c5 3d
       0.12673213 0.14804201 -0.046885375 0.096641734
000140 0e 1c db 3d 35 2c 84 3e 28 2b 0d be f4 3c a8 3d
       0.106987104 0.25814977 -0.13785994 0.08214751
000150 c5 40 0e 3e 26 5c 11 be bd 7f a6 3d 4a c0 9b bd
       0.13891895 -0.14195308 0.08129833 -0.076050356
000160 e2 4a f4 bc 2e 57 16 be 42 46 4e be 42 18 14 3e
       -0.029820863 -0.14681694 -0.20143989 0.14462379
000170 07 78 ce 3c 3e 27 52 bd 68 58 82 bd 50 06 e5 3c
       0.025203718 -0.051306956 -0.063645184 0.027957112
000180 0e 17 a7 3d ff 88 a3 3d 64 c6 db 3c 9f cc 2f be
       0.08158694 0.07985114 0.026827998 -0.171679
000190 33 03 73 bc 2a 75 8b 3e 76 a6 3e be 88 ab b5 3d
       -0.014832306 0.27237827 -0.18618187 0.088706076
0001a0 82 6b b0 bd 12 96 a0 bd 9f 91 ea ba 22 5d 22 3e
       -0.086142555 -0.07841124 -0.0017896182 0.1585584
0001b0 2f 7f a1 3d cc 28 a5 bc 5d 35 43 3e 28 bd 02 be
       0.078855865 -0.020161055 0.19063325 -0.1276747
0001c0 96 d3 1f bd e6 f2 4c bb 92 bc 2e be ba 18 3f be
       -0.039020143 -0.0031272708 -0.17064121 -0.18661776
0001d0 54 6a ec bb 87 3b df 3d d8 49 48 be 64 21 06 3e
       -0.0072148237 0.10900026 -0.19559419 0.13098675
0001e0 3f 31 24 be cc d2 86 3c 5d b9 dd 3c 43 ef 72 be
       -0.16034411 0.016457938 0.027065927 -0.23724084
0001f0 d2 7f 6c bd cb 43 12 3d 42 83 81 be 26 45 94 bb
       -0.057739086 0.035709184 -0.25295454 -0.0045248447

net.2.weight f4 [128, 128]
000000 dc 92 cf 3c fb a4 19 bd 2a 72 c0 bc 5b 21 df 3c
       0.025338583 -0.037510853 -0.023491938 0.027237585
000010 e9 26 64 bc eb 83 81 bd 27 7a f9 b9 0c 76 97 3c
       -0.0139252925 -0.063239895 -0.00047583992 0.018488906
000020 52 e3 98 bd 91 fc 96 bd 8d 9b bd bd 21 6d a0 3a
       -0.07465233 -0.07372392 -0.092581846 0.0012239554
000030 37 1d 5e 3d 2c c1 ab 3d c5 3d 31 bb 28 58 d2 bd
       0.05422708 0.08386454 -0.0027044874 -0.10270721
000040 2e cc 1e bd d5 72 02 bd 55 82 7b 3c 91 90 20 3d
       -0.03876894 -0.031847794 0.015350898 0.03920037
000050 c1 8e f8 3d d0 b9 65 3d b8 80 61 3d 76 c8 94 3d
       0.12136603 0.056085408 0.055054396 0.072647974
000060 af f9 7a 3d fd 78 b2 3d 82 7d a9 bd 62 b4 de bd
       0.061273273 0.08714483 -0.08275892 -0.10874249
000070 c4 46 e8 3d bc e0 c3 bd 76 97 bc bc 8f 09 7a 3d
       0.113416225 -0.09564349 -0.023021441 0.061044272
000080 f5 66 86 bd b9 eb 1e 3d 09 84 91 bd 25 99 93 3d
       -0.06562606 0.03879902 -0.07105262 0.072069444
000090 3a b2 3b 3d 84 49 c6 3d ff 69 ee bd de 28 36 bd
       0.045824267 0.09681991 -0.11641311 -0.044472568
0000a0 dd 55 e1 3b 93 0e 90 3d 4d 54 30 bd 0d 5b d5 3d
       0.006876691 0.0703403 -0.043049145 0.10417757
0000b0 64 79 38 bc 38 82 d2 3d df ce 08 bd 95 d0 44 bd
       -0.0112594105 0.102787435 -0.033400413 -0.04805048
0000c0 47 a4 9c bd db 4c 4b bd 0f aa 87 3d c1 54 c8 bb
       -0.07648521 -0.049633842 0.06624233 -0.006113619
0000d0 41 fe 8d 3c 51 64 27 3d 20 6e 91 3d a7 f5 2a bd
       0.017333152 0.040867154 0.07101083 -0.04173818
0000e0 16 33 b1 3c bb 86 8b 3d 61 bb 7b bd 6c 47 11 bc
       0.021630805 0.06812807 -0.061457995 -0.008867126
0000f0 4e 0d d4 bd 12 0a e3 3c 32 6e d8 3b 8b 09 b6 bd
       -0.103541 0.027714763 0.006604933 -0.08888539
000100 7e c9 8d bd 78 04 dd bb b4 c7 86 bd 24 21 57 3d
       -0.06923197 -0.0067449175 -0.06581059 0.05252184
000110 0a e7 cb 3d 43 bf 47 bc 2c 19 68 bc 0a 89 c9 bc
       0.099561766 -0.012191596 -0.014166158 -0.024601478
000120 62 8c 0a bd 4f a0 b6 3c ce 76 38 bd 7c fd 7f bd
       -0.033825286 0.022293238 -0.045035176 -0.0624976
000130 25 88 aa bd e2 4a 6c 3c 8c b2 14 bd 70 75 7e bc
       -0.08326749 0.01442215 -0.036303088 -0.015530929
000140 db 09 88 3d 8e 04 9c bd 1e a0 ad bc 51 e8 95 3c
       0.06642505 -0.07618056 -0.021194514 0.018299254
000150 55 55 ec bd 8f 93 51 bd 54 c0 c7 bd 8b f6 cd bb
       -0.11539713 -0.051166113 -0.097534806 -0.0062854937
000160 93 25 f6 3c 66 da ac 3d f8 12 af 3d 1e c2 2c 3d
       0.030047214 0.08440094 0.0854854 0.042177312
000170 93 11 2a bd 49 f1 08 bc a4 01 5c 3d c3 5a a2 bd
       -0.041520666 -0.008358308 0.053712502 -0.07927468
000180 c3 dd 45 bd 8e 45 40 bd 07 d1 f5 3d df 67 0c bd
       -0.04830719 -0.046941333 0.120027594 -0.034278747
000190 48 be 24 bd 17 68 07 bd 23 5a f6 3c b2 bb 28 bc
       -0.04022053 -0.033058252 0.030072277 -0.010298656
0001a0 01 a5 c5 bc b0 22 5b bd 58 c2 79 bc f2 51 6a 3c
       -0.024126532 -0.053499877 -0.015244089 0.014301764
0001b0 7a c1 58 bd 3b e8 2b 3d 64 c4 b1 bd 1c 7f 91 3d
       -0.05291889 0.04196952 -0.08680037 0.07104322
0001c0 35 8b 42 bd be 69 53 3d 9f 00 a6 3d d0 89 6e 3d
       -0.04749604 0.051614515 0.08105587 0.058236897
0001d0 c8 ac da bd ac bf 4c 3d 9b 32 de 3d 96 6c aa bd
       -0.10677487 0.04998748 0.10849496 -0.083214924
0001e0 3b aa 4f bc 9c f2 10 bc b2 5c 00 3d e0 58 cf 3d
       -0.012674863 -0.008846905 0.0313384 0.101243734
0001f0 10 37 c8 3d 78 c8 bf bb b9 e0 9b 3d 42 34 a0 3d
       0.09776127 -0.005852755 0.07611222 0.078224674
000200 e4 f3 81 3d 62 35 9c b9 35 2d 8d bd 4d c0 44 bc
       0.063453466 -0.00029794412 -0.06893388 -0.012008739
000210 21 5e 84 bd fb e4 25 3d 65 ae 54 3c 66 7d e9 3c
       -0.06463266 0.040501576 0.012981032 0.028502177
000220 c1 61 ac bd 7e 25 1d bc 10 f2 dc bc 4a 35 92 bd
       -0.084170826 -0.009591458 -0.026970893 -0.0713907
000230 e9 1c 20 3c 9e 35 98 3b 88 23 e7 bc ee e5 7e bc
       0.009772518 0.0046450635 -0.028215185 -0.015557749
000240 cc 4d c0 3b 3a f5 a3 3d fb 35 94 3c 01 19 cd 3b
       0.005868649 0.08005758 0.018092146 0.006259084
000250 86 91 17 3c 1c d3 70 bd 38 97 d6 3d 5a ce 65 bc
       0.009251004 -0.05879508 0.104780614 -0.014026249
000260 85 5e 2f bd f1 08 37 bd a4 95 d7 3d 28 5a 61 3d
       -0.04281475 -0.04468626 0.105265886 0.05501762
000270 f6 0f a9 bd 9d 96 3a 3c b0 98 8d ba 36 53 03 bd
       -0.082549974 0.011388448 -0.0010802951 -0.032061778
000280 40 54 d3 3d e6 fa 79 bd 61 a3 08 3d 13 10 69 bd
       0.10318804 -0.06103029 0.033358935 -0.056900095
000290 8a e0 cd bd f3 42 83 bd 0a dc c2 3c d5 3f 00 3d
       -0.10052593 -0.06409254 0.023786563 0.031310875
0002a0 8f cd 8d bd 7e 76 8a 3d dd 90 c5 3d 5d 13 6d bd
       -0.06923973 0.06760882 0.09646771 -0.057879794
0002b0 0c 1d 2b bd 83 44 2d 3d 18 08 d5 bd 5d e4 14 bd
       -0.041775748 0.042301666 -0.104019344 -0.036350597
0002c0 b2 60 d3 3d b5 b8 dc 3d 6e a6 a4 3d 4b 10 c7 3d
       0.103211775 0.107774176 0.080395564 0.097199045
0002d0 1b a8 48 3d 5a 97 5a bc d3 68 94 bc 39 a6 bc 3c
       0.048988443 -0.013341749 -0.01811639 0.02302848
0002e0 4c 32 d9 bd 1f e6 82 bd 64 23 b2 3c 23 af 5f bd
       -0.106052965 -0.06391548 0.021745391 -0.054610383
0002f0 87 6c 95 3d 7a 6c 8f bc c2 7d 20 3d 38 66 ae bc
       0.072960906 -0.01750778 0.039182432 -0.021288976
000300 04 f1 04 3d 26 0d 59 bd 61 c8 08 3d ac 58 d4 3d
       0.032456413 -0.052991055 0.03339422 0.10368475
000310 c8 ec 3b bd 1e a8 56 3d 59 14 b1 bc 64 0f a4 bd
       -0.04588011 0.052406423 -0.021616148 -0.08010748
000320 61 75 e7 bd 33 dc 66 3d 98 4a 3f 3d 72 12 f8 bc
       -0.11301685 0.056362342 0.046701998 -0.030282233
000330 50 04 a1 3d 30 05 62 3d af b3 b2 bd 18 a4 1a bd
       0.07862151 0.05518073 -0.08725678 -0.03775415
000340 6f c3 92 bd 46 5d aa 3d a1 58 08 bd fa 52 da 3d
       -0.07166182 0.08318572 -0.033287648 0.10660358
000350 f5 33 09 3d 75 bf ce 3c ad 0c cb 3d bf 50 82 bc
       0.033496816 0.025237778 0.09914527 -0.015907643
000360 fe 55 69 bc 91 13 f3 3b ae 99 b9 bc b6 24 b7 3d
       -0.014241694 0.007418104 -0.022656288 0.08942549
000370 6f 4d f5 bb 0a 83 c9 3d db 12 9e 3d 03 62 bb 3d
       -0.0074860374 0.09839447 0.0771844 0.091495536
000380 9d 2f 2e bd 1b d6 ae 3c a5 85 20 3d 30 9f 69 bd
       -0.042525876 0.021342328 0.039189953 -0.05703658
000390 e5 ba 8a 3d 30 09 00 3d 5d 2e 09 3c 53 a4 c1 3d
       0.067739286 0.031258762 0.00837287 0.094551705
0003a0 d0 d3 18 3d a6 69 ad bd 6b b0 d2 3d af 9c a1 3d
       0.037311375 -0.084674165 0.10287555 0.07891213
0003b0 94 0c 82 bd 96 8c 59 3d 0b 11 53 3d ef f6 03 bc
       -0.06350055 0.05311259 0.051529925 -0.008054479
0003c0 54 9f 59 bd e0 52 ad 3a b0 b5 d9 3c 80 91 d9 3c
       -0.053130463 0.0013223551 0.026575893 0.026558638
0003d0 a4 a1 a0 3d 6f 56 41 bd 63 81 0e 3d 70 0e 09 3d
       0.078433305 -0.04720157 0.03479136 0.033461034
0003e0 d0 b1 c6 3c 39 da ba 3d 1c 0a 51 3d ca 72 7c bc
       0.02425471 0.09123654 0.05103503 -0.015408227
0003f0 1b 7e 9a 3a 61 04 aa 3d 77 90 00 bd 4a b6 83 bd
       0.001178685 0.083016165 -0.031387772 -0.06431253

net.2.bias f4 [128]
000000 6f d6 72 bd 87 64 71 bd 75 ee 1c bd 05 93 bc bd
       -0.05928653 -0.05893376 -0.038313348 -0.09207729
000010 83 c9 d6 bc 5f 6c b1 3d 4b ca 77 bd 1f a6 8c 3d
       -0.026219135 0.08663248 -0.060495656 0.068676226
000020 6f c7 a1 bd 6c a7 b4 3d 5c fb 56 3d 71 76 ab bd
       -0.07899367 0.08820996 0.05248581 -0.083722
000030 9d b3 48 3d 0e 98 3d 3d 78 55 45 3d ce 65 5e 3d
       0.048999418 0.04628759 0.048177212 0.054296307
000040 52 e6 85 3d e9 45 11 3d b5 e2 2e bd 0a d1 a8 3c
       0.06538071 0.035467062 -0.042696673 0.02060749
000050 8f e0 3f bb 53 2f 54 3d 17 b0 66 bc 5e a5 56 3d
       -0.0029278134 0.051802944 -0.014080069 0.0524038
000060 a1 84 b8 bd be 07 be bd de 26 59 bd f9 d1 ac bd
       -0.09009672 -0.092788205 -0.053015582 -0.084384866
000070 b9 91 d5 bb ce fb d4 3c 6b dc 6a bd d2 29 88 3d
       -0.0065176156 0.025998976 -0.057339113 0.066486016
000080 7e 61 63 3d 84 e9 1b bd 7b 56 c5 bd d6 f3 47 3c
       0.055512898 -0.038064495 -0.096356355 0.012204131
000090 ab 21 45 bd 1c f6 5b bc 33 aa 10 3d a8 c7 eb bc
       -0.04812781 -0.013425376 0.035318565 -0.028781727
0000a0 18 85 91 bd 3b 8e 19 bd 51 3e b6 bd be 93 8f bc
       -0.07105464 -0.037489157 -0.08898605 -0.017526504
0000b0 32 1f ec bc 4c d4 3b bd 26 26 b8 bd 9a 13 ab bb
       -0.028823469 -0.04585676 -0.08991651 -0.0052208425
0000c0 5f a2 dc bd 5d 78 51 bd b9 a9 2c 3d 5d fc 29 3c
       -0.10773157 -0.051140178 0.042154048 0.0103751095
0000d0 13 08 d5 bd 2f 09 11 3d 06 18 6a bb 58 cb 4a bd
       -0.10401931 0.03540915 -0.0035719885 -0.04951033
0000e0 29 9d 45 3d f2 0a 44 3d 29 9c 15 bc e0 a9 5f 3d
       0.048245583 0.047862 -0.00913147 0.054605365
0000f0 35 a0 aa 3d 7c 39 15 bd e1 0b 5a bd a4 da 50 bd
       0.08331338 -0.036431774 -0.053233985 -0.050989762
000100 1f ee a5 bd fa b8 e3 bd b1 fd e0 3c 82 d4 5e 3d
       -0.081020586 -0.11119266 0.02746472 0.054401882
000110 d7 37 92 bd c2 55 d4 bc 26 87 fe bc 16 41 85 bc
       -0.07139557 -0.025919799 -0.031070303 -0.016266387
000120 1d a8 99 3d 10 b6 df bd ba ac f8 3a 7e 59 4d bc
       0.07502768 -0.109233975 0.0018972375 -0.012533544
000130 87 41 86 bb 8b d7 8f 3d cf bf 51 bd 63 d6 50 3d
       -0.004097167 0.070235334 -0.051208314 0.050985705
000140 75 2c 45 3d b7 15 40 bd 17 ce 43 3d c2 79 95 3d
       0.0481381 -0.04689571 0.047803964 0.07298614
000150 b4 73 4f bc 45 39 ac bc 8d 22 e3 3a 98 54 ec bc
       -0.012661863 -0.021023402 0.0017329023 -0.028848931
000160 ec bd c4 3d e7 78 15 3c 0d 9b 7a bd 1d 23 a2 bd
       0.09606537 0.009123064 -0.061183024 -0.079168536
000170 10 b1 c3 3d 9d 1f 18 bd e4 4e a5 3c f8 61 9a bd
       0.09555256 -0.037139524 0.02017922 -0.07538217
000180 4e d4 4e bc c4 e7 af 3c 48 5f 07 bd 7e 36 68 bb
       -0.01262386 0.02147282 -0.03304985 -0.003543287
000190 a7 5c 9b 3c a6 e5 9e bc ab fd 89 bd a2 22 25 bd
       0.018965079 -0.019396614 -0.067378365 -0.04031623
0001a0 b5 c8 b6 3d 43 d5 68 3d 24 8d cf bd d9 de 52 bd
       0.089250006 0.056844007 -0.10134342 -0.051482055
0001b0 68 60 3f 3d 94 5c 9d 3c f0 7e 9f bc 12 00 0d bd
       0.0467228 0.019209184 -0.019469708 -0.034423895
0001c0 1d aa ed 3d 19 52 e0 3c b1 af e4 bd be 22 b3 bc
       0.11604712 0.027382897 -0.11166323 -0.021867152
0001d0 0e 5e f9 3b 45 25 0d 3d 10 b7 37 3d b5 8c 99 3d
       0.007610089 0.03445937 0.044852316 0.07497541
0001e0 13 1d af 3d 50 75 6a 3d da 35 b7 bd d7 66 71 bd
       0.08550467 0.057240784 -0.08945818 -0.058935966
0001f0 2d 3a 48 3d 76 c0 39 3d d4 7a 7d bd fd 59 4e bc
       0.048883606 0.04534956 -0.061884716 -0.012594697

net.4.weight f4 [96, 128]
000000 42 4e d4 3d af 40 0e 3d ad f8 82 bd c1 32 51 bd
       0.10366489 0.034729656 -0.063950874 -0.051073793
000010 c6 7f a7 ba db 8c 92 ba 20 42 ad b5 33 8c a0 bd
       -0.0012779168 -0.0011180894 -1.2908749e-06 -0.07839241
000020 4a 9d 80 3d ee 31 68 bd f6 b7 a4 3d ab 70 70 bc
       0.062800005 -0.05668824 0.080429 -0.0146753
000030 a4 32 ac bc c3 0b 11 3d f8 56 c4 3d 8a 81 54 bd
       -0.021020241 0.035411607 0.095869005 -0.05188135
000040 f9 d8 89 bd cb 29 85 3d 9f 93 6a bd 48 08 4e bd
       -0.067308374 0.06502112 -0.05726969 -0.050300866
000050 81 57 f8 3a d1 49 4a bc 5a 14 8b 3b 09 b3 b9 3c
       0.0018946977 -0.012346701 0.0042443695 0.022668378
000060 2b 45 98 3d 50 a3 2f 3c 29 5c f8 bc 21 e0 50 3c
       0.07435068 0.010720089 -0.030317383 0.012748749
000070 bb de f2 3c 78 26 8b 3d cf e2 bc bc ec d9 8c bc
       0.029647222 0.06794447 -0.02305737 -0.017193757
000080 18 31 a6 3d 0c db 91 3d 83 51 7f bd ef 1c 7f 3d
       0.08114833 0.07121858 -0.062333595 0.062283453
000090 42 7f 34 3d fd 1f 15 3c e9 4c 71 bd 09 a8 ae 3c
       0.044066675 0.009101865 -0.058911238 0.02132036
0000a0 5f f7 3a bd 00 40 d3 3c 66 3a 33 3d 31 79 8a 3b
       -0.045646068 0.025787354 0.043756865 0.004225873
0000b0 6a 9d 8b bc fb fb 11 bb 3b 80 0d 3d 4b 37 b8 bc
       -0.017042834 -0.0022275436 0.03454612 -0.022487303
0000c0 4d de 25 bd a9 b2 a8 bd 3e 73 21 bd 19 48 2b 3d
       -0.040495206 -0.08237202 -0.039416544 0.041816805
0000d0 7a a6 b4 bc 55 5a 38 3d 13 07 6f bd 30 2b 46 3d
       -0.022052038 0.045008022 -0.058356356 0.04838103
0000e0 d2 f2 e6 bc 08 84 35 bd af f6 96 3c cb 63 a9 bc
       -0.028191958 -0.044315368 0.018428175 -0.020677468
0000f0 51 8b 7b bd 27 3b 8a 3c b9 b9 a6 3c 3b 8a 21 bd
       -0.06141216 0.01687391 0.020352231 -0.039438467
000100 66 43 b9 3d 3c d7 32 bc fe 39 14 3c 9c 3e 14 bd
       0.09046058 -0.010915574 0.00904703 -0.03619252
000110 65 bf 71 bd 60 33 ac bb fa c9 cc bc 15 a2 35 bc
       -0.05902042 -0.005255148 -0.024998654 -0.011086007
000120 73 92 ab ba 8d d8 6b 3d 60 40 99 bd 18 ec a5 bd
       -0.001308991 0.057579566 -0.07482982 -0.08101672
000130 43 13 ac 3d 7f 16 a7 bd f6 a7 02 3d a7 35 07 3d
       0.084021114 -0.08158588 0.03189846 0.03301015
000140 5e 5e 1b 3d 19 29 ca bc d2 af 17 bd 24 35 a5 bd
       0.037931792 -0.0246778 -0.03703291 -0.080667764
000150 48 10 73 bd da 37 0b 3d 95 51 bb 3d 31 c6 f8 3c
       -0.0593417 0.03398881 0.0914642 0.030367943
000160 87 65 8a 3c f9 d5 10 3d af 92 9a 3d a4 7a 7a 3d
       0.016894115 0.03536031 0.07547509 0.061152115
000170 0c bc 90 bb c0 f5 fe 3c 15 17 54 bd 3c 9c 57 bd
       -0.004416948 0.031123042 -0.051779825 -0.05263923
000180 55 73 95 3c a2 a8 ef bc 91 d9 87 bc 4d a6 5a 3d
       0.018243471 -0.029255215 -0.016583236 0.053381253
000190 26 44 00 bd 89 0b a0 3c 36 2f 84 3d 89 0f 56 3d
       -0.03131499 0.01953675 0.06454317 0.05226091
0001a0 b2 59 b5 bc 1b 80 26 3d 46 ec 1f 3d fc 74 8a 3c
       -0.022137497 0.040649515 0.039043687 0.016901486
0001b0 e6 9b 71 3d 1f 9e 07 bc 8f 70 9c 3d 06 1a 28 3d
       0.058986567 -0.008277445 0.07638656 0.041040443
0001c0 8b b8 19 bd 48 5c 1a 3d 67 42 56 bd 00 14 90 bd
       -0.03752951 0.037685663 -0.05230942 -0.07035065
0001d0 77 7a 3b 3d db 66 f6 3c 48 89 de bc 9c 22 a7 bd
       0.04577109 0.030078342 -0.02716507 -0.08160898
0001e0 5c a6 de ba 70 d7 9e 3d 64 9b 99 bc e1 6f 33 bd
       -0.0016986835 0.07755935 -0.018750854 -0.043807868
0001f0 1c 60 77 bd 83 3f 2a 3d 9c 72 b2 bc ab 71 ef bc
       -0.06039439 0.041564476 -0.021783166 -0.029229006
000200 76 fd 78 bd 7e 73 19 bd 2e fd 50 bd 6d aa d5 3d
       -0.060788594 -0.037463658 -0.0510227 0.10432897
000210 3c f0 91 bd 79 31 bd 3c 2b be 5e bd 8f 0c 61 3d
       -0.07125899 0.02309488 -0.054380577 0.054943617
000220 8c 1d 10 bc c5 af 92 3c 57 ff b3 3d 9f a5 61 bd
       -0.008796107 0.01790608 0.087889366 -0.05508959
000230 a6 eb 56 3c 16 7a 2c bc a7 77 4d 3d d8 b9 b9 3c
       0.013117706 -0.010527154 0.050162937 0.022671625
000240 08 77 52 3d dd f5 80 3d 1f 1c 6f bd 32 0f 4e bc
       0.05138305 0.06296895 -0.058376428 -0.012576865
000250 23 b4 70 bd 38 65 a0 3c b4 f7 0e bd 2d b2 79 3d
       -0.05876554 0.019579515 -0.034904197 0.060960937
000260 17 8b 39 bd b9 10 71 3d 4d 54 67 bd fb 52 9c bc
       -0.045298662 0.05885384 -0.05647688 -0.019082537
000270 cc dc 34 3d 0d f0 cb bc e7 90 67 bd 7f 56 3e 3d
       0.04415588 -0.024894739 -0.056534674 0.046469208
000280 96 7b ac bc 54 5a 1d 3d 87 2b 5a 3d 2a 71 84 3d
       -0.021055024 0.03841622 0.053264167 0.06466897
000290 70 31 32 bd 3c f8 b2 3d 93 d2 f2 3b 3e 3e 3f bd
       -0.04350418 0.08738753 0.0074103563 -0.04669022
0002a0 27 a3 5e 3c 34 f5 44 bc 48 78 28 3d 1b 8c 03 3d
       0.013588703 -0.012021352 0.041130334 0.032116037
0002b0 5c 6c 7a ba e3 d2 86 38 ec 2c 7a 3a a4 5f 98 3d
       -0.000955289 6.4288986e-05 0.0009543437 0.07440117
0002c0 c6 47 35 bd d2 38 68 3d b0 be c3 bd 4f 8e 13 bd
       -0.0442579 0.056694813 -0.09557855 -0.036024388
0002d0 20 63 3d bd b9 2e d4 bc 35 93 25 bc 89 03 b3 3d
       -0.04623711 -0.025901185 -0.010105898 0.08740909
0002e0 1e ec 40 3d 94 55 65 3c 5b 41 0a 3d fe 1c cc bd
       0.04710018 0.013997454 0.033753734 -0.09966467
0002f0 0a d7 84 3d 41 ea ae 3c 45 aa 96 bd 5d 43 85 3d
       0.06486328 0.021351935 -0.07356695 0.06506989
000300 0b fa 8e 3d f2 b9 75 3d 65 6e d5 3b 45 51 85 3d
       0.06981286 0.059991784 0.006513404 0.065096416
000310 8b 5d 2c bd 50 5e b0 3d 89 81 0c 3c 32 48 19 bd
       -0.042081397 0.08611739 0.008575805 -0.037422366
000320 80 bb 7b 3d f0 52 ec 3c e7 86 81 3c b9 d4 36 3d
       0.06145811 0.028848141 0.015811397 0.044636462
000330 e4 06 9f 3c 62 32 c5 bc f6 d6 63 3d 83 c5 08 3d
       0.019412465 -0.024071876 0.055624925 0.033391487
000340 dd 82 bd 3d a5 c7 0d 3d 36 fb 4b bd f3 8c 29 bd
       0.09253476 0.034614224 -0.04980012 -0.041394185
000350 e2 9c 3c 3c 86 da 6c bd 01 f3 a0 3c 4c 7e 8b bd
       0.011512013 -0.057825588 0.019647123 -0.068111986
000360 72 fd 68 bd 3f 9a 25 bd 13 3e 40 3d 67 d4 11 3d
       -0.05688233 -0.040430304 0.0469342 0.035602953
000370 de 2b 76 3d 1b af a6 bd af a2 a5 3d fe aa 14 bd
       0.06010043 -0.081388675 0.0808767 -0.036295883
000380 1f d8 9c bc 59 01 14 bd 79 17 7d 3d 8f 08 c1 3b
       -0.019146023 -0.036134098 0.061789963 0.005890913
000390 a2 42 0e 3b 26 83 b2 bd b0 c4 d8 3c 29 6f 87 3d
       0.0021707197 -0.08716421 0.026460975 0.06612999
0003a0 43 37 9f bd 18 b1 7a 3c 4e bc d7 3d 17 06 7b bd
       -0.07774212 0.0153010115 0.10533963 -0.061285105
0003b0 ea 0c 29 3d 6b 1e 43 bd ef 40 19 3d ec b4 50 bd
       0.04127208 -0.04763643 0.03741544 -0.05095379
0003c0 d4 18 c5 bd 2a f5 9d 3c 3c c4 6f 3d 67 98 4b 3d
       -0.09623876 0.019281942 0.058536753 0.04970589
0003d0 34 da 0e 3d 13 34 85 bd ff 68 9d bc c9 1e 83 bd
       0.034876063 -0.06504073 -0.019215105 -0.06402356
0003e0 4c 5e 74 3d 55 0f 8a bd 25 2d 4d 3b 6f 02 61 bd
       0.05966024 -0.067412056 0.0031307426 -0.05493396
0003f0 55 8d e2 bc af 61 b2 3d 21 fe f7 bc f8 92 01 bd
       -0.027655283 0.08710038 -0.030272545 -0.0316343

net.4.bias f4 [96]
000000 25 b5 80 3d 0b 3f d0 bd 6d 78 99 bd 5b 0b d3 3c
       0.062845506 -0.101682745 -0.074936725 0.02576225
000010 32 e8 9a bd 0f 6e 65 3d 68 84 78 bd c7 09 a7 bd
       -0.07563819 0.056013163 -0.060673147 -0.08156162
000020 b0 d8 72 3c c7 32 83 bd 02 a7 cb 3d e3 89 ea 3d
       0.01482217 -0.064061694 0.099439636 0.11452081
000030 c8 65 9a 3d 00 70 05 bd 6f b8 d0 bd b2 23 67 3d
       0.075389445 -0.032577515 -0.10191428 0.056430526
000040 b1 b6 8d bd 19 2c 8d 3d b3 43 03 3d 28 a2 df 3c
       -0.06919611 0.068931766 0.032046985 0.027299002
000050 d0 64 0c bd c6 2b f8 3c 35 b6 94 bc ca a3 9f 3d
       -0.03427583 0.03029431 -0.01815329 0.07794912
000060 cb ab 9b bd 8c 00 29 3b af 45 8c 3d b5 78 c1 3d
       -0.07601126 0.002578768 0.068492286 0.09446851
000070 64 77 ef bc 98 b4 80 bd 89 e4 a5 bc d8 f3 48 3d
       -0.029231735 -0.062844455 -0.020250576 0.049060673
000080 16 e0 51 bd 66 1e 89 3d 7b 79 35 bd a1 26 b9 bc
       -0.051239096 0.06695251 -0.044305306 -0.022601428
000090 dd c5 eb 3b 79 5e fe 3c ae 95 56 3d 3c fc 37 bd
       0.007195218 0.031050907 0.05238884 -0.044918284
0000a0 93 32 a0 bd c5 06 f3 3b f4 f7 88 3d 23 0a c5 bd
       -0.07822146 0.0074165785 0.06687918 -0.09621074
0000b0 b4 12 b7 bd 39 10 67 bd 41 70 7a bd 7f f8 cd 3c
       -0.08939114 -0.056411956 -0.06114221 0.025142906
0000c0 27 77 52 bd 2b 8c 6f 3d c0 54 66 3d 24 3b 2b bc
       -0.051383164 0.058483284 0.056233168 -0.010451112
0000d0 65 7c 93 3c 70 d8 27 bd 13 1d 8a bd 13 07 c3 3c
       0.018003652 -0.040977895 -0.06743827 0.023807084
0000e0 64 fa 08 bc 9d 4e d2 3d 3f bc b3 3d a5 c7 81 3b
       -0.008360479 0.102689005 0.087761395 0.003960567
0000f0 79 33 7b bd 1e 04 ce 3c 52 91 be bc 99 08 ed bc
       -0.061328385 0.025148448 -0.023262653 -0.028934764
000100 e1 ab 85 3c 72 31 56 bd 70 71 7d bd d7 ff 9f bd
       0.01631731 -0.05229325 -0.06187576 -0.078124695
000110 d1 e2 b3 bd 72 b9 0c 3c 70 12 32 3d 1b d5 d6 3c
       -0.08783496 0.0085891355 0.043474615 0.026224663
000120 74 a6 1f 3d 04 ac 12 bd c2 82 09 bd c6 ad 52 3d
       0.0389771 -0.035808578 -0.033571966 0.051435255
000130 e5 e2 51 bd 30 c2 51 bb 39 cc e9 3c 6b ba 95 3c
       -0.051241774 -0.0032006614 0.028539764 0.018277368
000140 dd 7f 00 bd b0 84 fe bc 88 c3 84 3d 28 8c 55 3d
       -0.03137194 -0.03106913 0.06482607 0.052135617
000150 a4 23 58 bd f2 e5 74 3d 4a 88 37 bd 47 c1 7c 3d
       -0.052768365 0.059789605 -0.04480771 0.06170776
000160 01 c1 96 3d af 51 11 bd fd 1c 80 bd 9f a9 a5 bd
       0.07361031 -0.03547829 -0.06255529 -0.08088993
000170 82 a2 cc 3d 97 c3 17 bd 57 0f 31 bb 7a ac 7f 3d
       0.099919334 -0.037051763 -0.00270172 0.062420346
